…
            "['may', 'utc', 'i', 'loooooooovvvvvveee', 'utc', 'i', 'loooooooovvvvvveee', 'my', 'i', 'loooooooovvvvvveee', 'my', 'not', 'loooooooovvvvvveee', 'my', 'not', 'that', 'my', 'not', 'that', 'the']\n",
            "Total Tokens: 28312\n",
            "Unique Tokens: 2121\n",
            "Total Sequences:28308 \n",
            "Model: \"sequential_2\"\n",
            "_________________________________________________________________\n",
            "Layer (type)                 Output Shape              Param #   \n",
            "=================================================================\n",
            "embedding_2 (Embedding)      (None, 3, 50)             106050    \n",
            "_________________________________________________________________\n",
            "lstm_3 (LSTM)                (None, 3, 80)             41920     \n",
            "_________________________________________________________________\n",
            "dropout_4 (Dropout)          (None, 3, 80)             0         \n",
            "_________________________________________________________________\n",
            "lstm_4 (LSTM)                (None, 80)                51520     \n",
            "_________________________________________________________________\n",
            "dropout_5 (Dropout)          (None, 80)                0         \n",
            "_________________________________________________________________\n",
            "dense_3 (Dense)              (None, 100)               8100      \n",
            "_________________________________________________________________\n",
            "dropout_6 (Dropout)          (None, 100)               0         \n",
            "_________________________________________________________________\n",
            "dense_4 (Dense)              (None, 2121)              214221    \n",
            "=================================================================\n",
            "Total params: 421,811\n",
            "Trainable params: 421,811\n",
            "Non-trainable params: 0\n",
            "_________________________________________________________________\n",
            "None\n"
          ],
          "name": "stdout"
        },
        {
          "output_type": "stream",
…
